ModuleDict(
  (SA): Baseline_2(
    (unet): Generic_UNet(
      (conv_blocks_localization): ModuleList(
        (0-1): 2 x Sequential(
          (0): StackedConvLayers(
            (blocks): Sequential(
              (0): ConvDropoutNormNonlin(
                (conv): Conv2d(960, 480, kernel_size=(3, 3), stride=(1, 1), padding=(1, 1))
                (instnorm): BatchNorm2d(480, eps=1e-05, momentum=0.1, affine=True, track_running_stats=True)
                (lrelu): LeakyReLU(negative_slope=0.01, inplace=True)
              )
            )
          )
          (1): StackedConvLayers(
            (blocks): Sequential(
              (0): ConvDropoutNormNonlin(
                (conv): Conv2d(480, 480, kernel_size=(3, 3), stride=(1, 1), padding=(1, 1))
                (instnorm): BatchNorm2d(480, eps=1e-05, momentum=0.1, affine=True, track_running_stats=True)
                (lrelu): LeakyReLU(negative_slope=0.01, inplace=True)
              )
            )
          )
        )
        (2): Sequential(
          (0): StackedConvLayers(
            (blocks): Sequential(
              (0): ConvDropoutNormNonlin(
                (conv): Conv2d(512, 256, kernel_size=(3, 3), stride=(1, 1), padding=(1, 1))
                (instnorm): BatchNorm2d(256, eps=1e-05, momentum=0.1, affine=True, track_running_stats=True)
                (lrelu): LeakyReLU(negative_slope=0.01, inplace=True)
              )
            )
          )
          (1): StackedConvLayers(
            (blocks): Sequential(
              (0): ConvDropoutNormNonlin(
                (conv): Conv2d(256, 256, kernel_size=(3, 3), stride=(1, 1), padding=(1, 1))
                (instnorm): BatchNorm2d(256, eps=1e-05, momentum=0.1, affine=True, track_running_stats=True)
                (lrelu): LeakyReLU(negative_slope=0.01, inplace=True)
              )
            )
          )
        )
        (3): Sequential(
          (0): StackedConvLayers(
            (blocks): Sequential(
              (0): ConvDropoutNormNonlin(
                (conv): Conv2d(256, 128, kernel_size=(3, 3), stride=(1, 1), padding=(1, 1))
                (instnorm): BatchNorm2d(128, eps=1e-05, momentum=0.1, affine=True, track_running_stats=True)
                (lrelu): LeakyReLU(negative_slope=0.01, inplace=True)
              )
            )
          )
          (1): StackedConvLayers(
            (blocks): Sequential(
              (0): ConvDropoutNormNonlin(
                (conv): Conv2d(128, 128, kernel_size=(3, 3), stride=(1, 1), padding=(1, 1))
                (instnorm): BatchNorm2d(128, eps=1e-05, momentum=0.1, affine=True, track_running_stats=True)
                (lrelu): LeakyReLU(negative_slope=0.01, inplace=True)
              )
            )
          )
        )
        (4): Sequential(
          (0): StackedConvLayers(
            (blocks): Sequential(
              (0): ConvDropoutNormNonlin(
                (conv): Conv2d(128, 64, kernel_size=(3, 3), stride=(1, 1), padding=(1, 1))
                (instnorm): BatchNorm2d(64, eps=1e-05, momentum=0.1, affine=True, track_running_stats=True)
                (lrelu): LeakyReLU(negative_slope=0.01, inplace=True)
              )
            )
          )
          (1): StackedConvLayers(
            (blocks): Sequential(
              (0): ConvDropoutNormNonlin(
                (conv): Conv2d(64, 64, kernel_size=(3, 3), stride=(1, 1), padding=(1, 1))
                (instnorm): BatchNorm2d(64, eps=1e-05, momentum=0.1, affine=True, track_running_stats=True)
                (lrelu): LeakyReLU(negative_slope=0.01, inplace=True)
              )
            )
          )
        )
        (5): Sequential(
          (0): StackedConvLayers(
            (blocks): Sequential(
              (0): ConvDropoutNormNonlin(
                (conv): Conv2d(64, 32, kernel_size=(3, 3), stride=(1, 1), padding=(1, 1))
                (instnorm): BatchNorm2d(32, eps=1e-05, momentum=0.1, affine=True, track_running_stats=True)
                (lrelu): LeakyReLU(negative_slope=0.01, inplace=True)
              )
            )
          )
          (1): StackedConvLayers(
            (blocks): Sequential(
              (0): ConvDropoutNormNonlin(
                (conv): Conv2d(32, 32, kernel_size=(3, 3), stride=(1, 1), padding=(1, 1))
                (instnorm): BatchNorm2d(32, eps=1e-05, momentum=0.1, affine=True, track_running_stats=True)
                (lrelu): LeakyReLU(negative_slope=0.01, inplace=True)
              )
            )
          )
        )
      )
      (conv_blocks_context): ModuleList(
        (0): StackedConvLayers(
          (blocks): Sequential(
            (0): ConvDropoutNormNonlin(
              (conv): Conv2d(1, 32, kernel_size=(3, 3), stride=(1, 1), padding=(1, 1))
              (instnorm): BatchNorm2d(32, eps=1e-05, momentum=0.1, affine=True, track_running_stats=True)
              (lrelu): LeakyReLU(negative_slope=0.01, inplace=True)
            )
            (1): ConvDropoutNormNonlin(
              (conv): Conv2d(32, 32, kernel_size=(3, 3), stride=(1, 1), padding=(1, 1))
              (instnorm): BatchNorm2d(32, eps=1e-05, momentum=0.1, affine=True, track_running_stats=True)
              (lrelu): LeakyReLU(negative_slope=0.01, inplace=True)
            )
          )
        )
        (1): StackedConvLayers(
          (blocks): Sequential(
            (0): ConvDropoutNormNonlin(
              (conv): Conv2d(32, 64, kernel_size=(3, 3), stride=(2, 2), padding=(1, 1))
              (instnorm): BatchNorm2d(64, eps=1e-05, momentum=0.1, affine=True, track_running_stats=True)
              (lrelu): LeakyReLU(negative_slope=0.01, inplace=True)
            )
            (1): ConvDropoutNormNonlin(
              (conv): Conv2d(64, 64, kernel_size=(3, 3), stride=(1, 1), padding=(1, 1))
              (instnorm): BatchNorm2d(64, eps=1e-05, momentum=0.1, affine=True, track_running_stats=True)
              (lrelu): LeakyReLU(negative_slope=0.01, inplace=True)
            )
          )
        )
        (2): StackedConvLayers(
          (blocks): Sequential(
            (0): ConvDropoutNormNonlin(
              (conv): Conv2d(64, 128, kernel_size=(3, 3), stride=(2, 2), padding=(1, 1))
              (instnorm): BatchNorm2d(128, eps=1e-05, momentum=0.1, affine=True, track_running_stats=True)
              (lrelu): LeakyReLU(negative_slope=0.01, inplace=True)
            )
            (1): ConvDropoutNormNonlin(
              (conv): Conv2d(128, 128, kernel_size=(3, 3), stride=(1, 1), padding=(1, 1))
              (instnorm): BatchNorm2d(128, eps=1e-05, momentum=0.1, affine=True, track_running_stats=True)
              (lrelu): LeakyReLU(negative_slope=0.01, inplace=True)
            )
          )
        )
        (3): StackedConvLayers(
          (blocks): Sequential(
            (0): ConvDropoutNormNonlin(
              (conv): Conv2d(128, 256, kernel_size=(3, 3), stride=(2, 2), padding=(1, 1))
              (instnorm): BatchNorm2d(256, eps=1e-05, momentum=0.1, affine=True, track_running_stats=True)
              (lrelu): LeakyReLU(negative_slope=0.01, inplace=True)
            )
            (1): ConvDropoutNormNonlin(
              (conv): Conv2d(256, 256, kernel_size=(3, 3), stride=(1, 1), padding=(1, 1))
              (instnorm): BatchNorm2d(256, eps=1e-05, momentum=0.1, affine=True, track_running_stats=True)
              (lrelu): LeakyReLU(negative_slope=0.01, inplace=True)
            )
          )
        )
        (4): StackedConvLayers(
          (blocks): Sequential(
            (0): ConvDropoutNormNonlin(
              (conv): Conv2d(256, 480, kernel_size=(3, 3), stride=(2, 2), padding=(1, 1))
              (instnorm): BatchNorm2d(480, eps=1e-05, momentum=0.1, affine=True, track_running_stats=True)
              (lrelu): LeakyReLU(negative_slope=0.01, inplace=True)
            )
            (1): ConvDropoutNormNonlin(
              (conv): Conv2d(480, 480, kernel_size=(3, 3), stride=(1, 1), padding=(1, 1))
              (instnorm): BatchNorm2d(480, eps=1e-05, momentum=0.1, affine=True, track_running_stats=True)
              (lrelu): LeakyReLU(negative_slope=0.01, inplace=True)
            )
          )
        )
        (5): StackedConvLayers(
          (blocks): Sequential(
            (0): ConvDropoutNormNonlin(
              (conv): Conv2d(480, 480, kernel_size=(3, 3), stride=(2, 2), padding=(1, 1))
              (instnorm): BatchNorm2d(480, eps=1e-05, momentum=0.1, affine=True, track_running_stats=True)
              (lrelu): LeakyReLU(negative_slope=0.01, inplace=True)
            )
            (1): ConvDropoutNormNonlin(
              (conv): Conv2d(480, 480, kernel_size=(3, 3), stride=(1, 1), padding=(1, 1))
              (instnorm): BatchNorm2d(480, eps=1e-05, momentum=0.1, affine=True, track_running_stats=True)
              (lrelu): LeakyReLU(negative_slope=0.01, inplace=True)
            )
          )
        )
        (6): Sequential(
          (0): StackedConvLayers(
            (blocks): Sequential(
              (0): ConvDropoutNormNonlin(
                (conv): Conv2d(480, 480, kernel_size=(3, 3), stride=(2, 2), padding=(1, 1))
                (instnorm): BatchNorm2d(480, eps=1e-05, momentum=0.1, affine=True, track_running_stats=True)
                (lrelu): LeakyReLU(negative_slope=0.01, inplace=True)
              )
            )
          )
          (1): StackedConvLayers(
            (blocks): Sequential(
              (0): ConvDropoutNormNonlin(
                (conv): Conv2d(480, 480, kernel_size=(3, 3), stride=(1, 1), padding=(1, 1))
                (instnorm): BatchNorm2d(480, eps=1e-05, momentum=0.1, affine=True, track_running_stats=True)
                (lrelu): LeakyReLU(negative_slope=0.01, inplace=True)
              )
            )
          )
        )
      )
      (td): ModuleList()
      (tu): ModuleList(
        (0-1): 2 x ConvTranspose2d(480, 480, kernel_size=(2, 2), stride=(2, 2), bias=False)
        (2): ConvTranspose2d(480, 256, kernel_size=(2, 2), stride=(2, 2), bias=False)
        (3): ConvTranspose2d(256, 128, kernel_size=(2, 2), stride=(2, 2), bias=False)
        (4): ConvTranspose2d(128, 64, kernel_size=(2, 2), stride=(2, 2), bias=False)
        (5): ConvTranspose2d(64, 32, kernel_size=(2, 2), stride=(2, 2), bias=False)
      )
      (seg_outputs): ModuleList(
        (0-1): 2 x Conv2d(480, 4, kernel_size=(1, 1), stride=(1, 1), bias=False)
        (2): Conv2d(256, 4, kernel_size=(1, 1), stride=(1, 1), bias=False)
        (3): Conv2d(128, 4, kernel_size=(1, 1), stride=(1, 1), bias=False)
        (4): Conv2d(64, 4, kernel_size=(1, 1), stride=(1, 1), bias=False)
        (5): Conv2d(32, 4, kernel_size=(1, 1), stride=(1, 1), bias=False)
      )
    )
  )
  (LA): Baseline_2(
    (unet): Generic_UNet(
      (conv_blocks_localization): ModuleList(
        (0-1): 2 x Sequential(
          (0): StackedConvLayers(
            (blocks): Sequential(
              (0): ConvDropoutNormNonlin(
                (conv): Conv2d(960, 480, kernel_size=(3, 3), stride=(1, 1), padding=(1, 1))
                (instnorm): BatchNorm2d(480, eps=1e-05, momentum=0.1, affine=True, track_running_stats=True)
                (lrelu): LeakyReLU(negative_slope=0.01, inplace=True)
              )
            )
          )
          (1): StackedConvLayers(
            (blocks): Sequential(
              (0): ConvDropoutNormNonlin(
                (conv): Conv2d(480, 480, kernel_size=(3, 3), stride=(1, 1), padding=(1, 1))
                (instnorm): BatchNorm2d(480, eps=1e-05, momentum=0.1, affine=True, track_running_stats=True)
                (lrelu): LeakyReLU(negative_slope=0.01, inplace=True)
              )
            )
          )
        )
        (2): Sequential(
          (0): StackedConvLayers(
            (blocks): Sequential(
              (0): ConvDropoutNormNonlin(
                (conv): Conv2d(512, 256, kernel_size=(3, 3), stride=(1, 1), padding=(1, 1))
                (instnorm): BatchNorm2d(256, eps=1e-05, momentum=0.1, affine=True, track_running_stats=True)
                (lrelu): LeakyReLU(negative_slope=0.01, inplace=True)
              )
            )
          )
          (1): StackedConvLayers(
            (blocks): Sequential(
              (0): ConvDropoutNormNonlin(
                (conv): Conv2d(256, 256, kernel_size=(3, 3), stride=(1, 1), padding=(1, 1))
                (instnorm): BatchNorm2d(256, eps=1e-05, momentum=0.1, affine=True, track_running_stats=True)
                (lrelu): LeakyReLU(negative_slope=0.01, inplace=True)
              )
            )
          )
        )
        (3): Sequential(
          (0): StackedConvLayers(
            (blocks): Sequential(
              (0): ConvDropoutNormNonlin(
                (conv): Conv2d(256, 128, kernel_size=(3, 3), stride=(1, 1), padding=(1, 1))
                (instnorm): BatchNorm2d(128, eps=1e-05, momentum=0.1, affine=True, track_running_stats=True)
                (lrelu): LeakyReLU(negative_slope=0.01, inplace=True)
              )
            )
          )
          (1): StackedConvLayers(
            (blocks): Sequential(
              (0): ConvDropoutNormNonlin(
                (conv): Conv2d(128, 128, kernel_size=(3, 3), stride=(1, 1), padding=(1, 1))
                (instnorm): BatchNorm2d(128, eps=1e-05, momentum=0.1, affine=True, track_running_stats=True)
                (lrelu): LeakyReLU(negative_slope=0.01, inplace=True)
              )
            )
          )
        )
        (4): Sequential(
          (0): StackedConvLayers(
            (blocks): Sequential(
              (0): ConvDropoutNormNonlin(
                (conv): Conv2d(128, 64, kernel_size=(3, 3), stride=(1, 1), padding=(1, 1))
                (instnorm): BatchNorm2d(64, eps=1e-05, momentum=0.1, affine=True, track_running_stats=True)
                (lrelu): LeakyReLU(negative_slope=0.01, inplace=True)
              )
            )
          )
          (1): StackedConvLayers(
            (blocks): Sequential(
              (0): ConvDropoutNormNonlin(
                (conv): Conv2d(64, 64, kernel_size=(3, 3), stride=(1, 1), padding=(1, 1))
                (instnorm): BatchNorm2d(64, eps=1e-05, momentum=0.1, affine=True, track_running_stats=True)
                (lrelu): LeakyReLU(negative_slope=0.01, inplace=True)
              )
            )
          )
        )
        (5): Sequential(
          (0): StackedConvLayers(
            (blocks): Sequential(
              (0): ConvDropoutNormNonlin(
                (conv): Conv2d(64, 32, kernel_size=(3, 3), stride=(1, 1), padding=(1, 1))
                (instnorm): BatchNorm2d(32, eps=1e-05, momentum=0.1, affine=True, track_running_stats=True)
                (lrelu): LeakyReLU(negative_slope=0.01, inplace=True)
              )
            )
          )
          (1): StackedConvLayers(
            (blocks): Sequential(
              (0): ConvDropoutNormNonlin(
                (conv): Conv2d(32, 32, kernel_size=(3, 3), stride=(1, 1), padding=(1, 1))
                (instnorm): BatchNorm2d(32, eps=1e-05, momentum=0.1, affine=True, track_running_stats=True)
                (lrelu): LeakyReLU(negative_slope=0.01, inplace=True)
              )
            )
          )
        )
      )
      (conv_blocks_context): ModuleList(
        (0): StackedConvLayers(
          (blocks): Sequential(
            (0): ConvDropoutNormNonlin(
              (conv): Conv2d(1, 32, kernel_size=(3, 3), stride=(1, 1), padding=(1, 1))
              (instnorm): BatchNorm2d(32, eps=1e-05, momentum=0.1, affine=True, track_running_stats=True)
              (lrelu): LeakyReLU(negative_slope=0.01, inplace=True)
            )
            (1): ConvDropoutNormNonlin(
              (conv): Conv2d(32, 32, kernel_size=(3, 3), stride=(1, 1), padding=(1, 1))
              (instnorm): BatchNorm2d(32, eps=1e-05, momentum=0.1, affine=True, track_running_stats=True)
              (lrelu): LeakyReLU(negative_slope=0.01, inplace=True)
            )
          )
        )
        (1): StackedConvLayers(
          (blocks): Sequential(
            (0): ConvDropoutNormNonlin(
              (conv): Conv2d(32, 64, kernel_size=(3, 3), stride=(2, 2), padding=(1, 1))
              (instnorm): BatchNorm2d(64, eps=1e-05, momentum=0.1, affine=True, track_running_stats=True)
              (lrelu): LeakyReLU(negative_slope=0.01, inplace=True)
            )
            (1): ConvDropoutNormNonlin(
              (conv): Conv2d(64, 64, kernel_size=(3, 3), stride=(1, 1), padding=(1, 1))
              (instnorm): BatchNorm2d(64, eps=1e-05, momentum=0.1, affine=True, track_running_stats=True)
              (lrelu): LeakyReLU(negative_slope=0.01, inplace=True)
            )
          )
        )
        (2): StackedConvLayers(
          (blocks): Sequential(
            (0): ConvDropoutNormNonlin(
              (conv): Conv2d(64, 128, kernel_size=(3, 3), stride=(2, 2), padding=(1, 1))
              (instnorm): BatchNorm2d(128, eps=1e-05, momentum=0.1, affine=True, track_running_stats=True)
              (lrelu): LeakyReLU(negative_slope=0.01, inplace=True)
            )
            (1): ConvDropoutNormNonlin(
              (conv): Conv2d(128, 128, kernel_size=(3, 3), stride=(1, 1), padding=(1, 1))
              (instnorm): BatchNorm2d(128, eps=1e-05, momentum=0.1, affine=True, track_running_stats=True)
              (lrelu): LeakyReLU(negative_slope=0.01, inplace=True)
            )
          )
        )
        (3): StackedConvLayers(
          (blocks): Sequential(
            (0): ConvDropoutNormNonlin(
              (conv): Conv2d(128, 256, kernel_size=(3, 3), stride=(2, 2), padding=(1, 1))
              (instnorm): BatchNorm2d(256, eps=1e-05, momentum=0.1, affine=True, track_running_stats=True)
              (lrelu): LeakyReLU(negative_slope=0.01, inplace=True)
            )
            (1): ConvDropoutNormNonlin(
              (conv): Conv2d(256, 256, kernel_size=(3, 3), stride=(1, 1), padding=(1, 1))
              (instnorm): BatchNorm2d(256, eps=1e-05, momentum=0.1, affine=True, track_running_stats=True)
              (lrelu): LeakyReLU(negative_slope=0.01, inplace=True)
            )
          )
        )
        (4): StackedConvLayers(
          (blocks): Sequential(
            (0): ConvDropoutNormNonlin(
              (conv): Conv2d(256, 480, kernel_size=(3, 3), stride=(2, 2), padding=(1, 1))
              (instnorm): BatchNorm2d(480, eps=1e-05, momentum=0.1, affine=True, track_running_stats=True)
              (lrelu): LeakyReLU(negative_slope=0.01, inplace=True)
            )
            (1): ConvDropoutNormNonlin(
              (conv): Conv2d(480, 480, kernel_size=(3, 3), stride=(1, 1), padding=(1, 1))
              (instnorm): BatchNorm2d(480, eps=1e-05, momentum=0.1, affine=True, track_running_stats=True)
              (lrelu): LeakyReLU(negative_slope=0.01, inplace=True)
            )
          )
        )
        (5): StackedConvLayers(
          (blocks): Sequential(
            (0): ConvDropoutNormNonlin(
              (conv): Conv2d(480, 480, kernel_size=(3, 3), stride=(2, 2), padding=(1, 1))
              (instnorm): BatchNorm2d(480, eps=1e-05, momentum=0.1, affine=True, track_running_stats=True)
              (lrelu): LeakyReLU(negative_slope=0.01, inplace=True)
            )
            (1): ConvDropoutNormNonlin(
              (conv): Conv2d(480, 480, kernel_size=(3, 3), stride=(1, 1), padding=(1, 1))
              (instnorm): BatchNorm2d(480, eps=1e-05, momentum=0.1, affine=True, track_running_stats=True)
              (lrelu): LeakyReLU(negative_slope=0.01, inplace=True)
            )
          )
        )
        (6): Sequential(
          (0): StackedConvLayers(
            (blocks): Sequential(
              (0): ConvDropoutNormNonlin(
                (conv): Conv2d(480, 480, kernel_size=(3, 3), stride=(2, 2), padding=(1, 1))
                (instnorm): BatchNorm2d(480, eps=1e-05, momentum=0.1, affine=True, track_running_stats=True)
                (lrelu): LeakyReLU(negative_slope=0.01, inplace=True)
              )
            )
          )
          (1): StackedConvLayers(
            (blocks): Sequential(
              (0): ConvDropoutNormNonlin(
                (conv): Conv2d(480, 480, kernel_size=(3, 3), stride=(1, 1), padding=(1, 1))
                (instnorm): BatchNorm2d(480, eps=1e-05, momentum=0.1, affine=True, track_running_stats=True)
                (lrelu): LeakyReLU(negative_slope=0.01, inplace=True)
              )
            )
          )
        )
      )
      (td): ModuleList()
      (tu): ModuleList(
        (0-1): 2 x ConvTranspose2d(480, 480, kernel_size=(2, 2), stride=(2, 2), bias=False)
        (2): ConvTranspose2d(480, 256, kernel_size=(2, 2), stride=(2, 2), bias=False)
        (3): ConvTranspose2d(256, 128, kernel_size=(2, 2), stride=(2, 2), bias=False)
        (4): ConvTranspose2d(128, 64, kernel_size=(2, 2), stride=(2, 2), bias=False)
        (5): ConvTranspose2d(64, 32, kernel_size=(2, 2), stride=(2, 2), bias=False)
      )
      (seg_outputs): ModuleList(
        (0-1): 2 x Conv2d(480, 4, kernel_size=(1, 1), stride=(1, 1), bias=False)
        (2): Conv2d(256, 4, kernel_size=(1, 1), stride=(1, 1), bias=False)
        (3): Conv2d(128, 4, kernel_size=(1, 1), stride=(1, 1), bias=False)
        (4): Conv2d(64, 4, kernel_size=(1, 1), stride=(1, 1), bias=False)
        (5): Conv2d(32, 4, kernel_size=(1, 1), stride=(1, 1), bias=False)
      )
    )
  )
)
{'GDLoss': np.float64(-0.012471482346882112), 'CELoss': np.float64(2.005674997344613), 'Total': np.float64(1.9932035356760025), 'LV_dc': np.float64(0.005152551125485048), 'LV_hd': np.float64(167.07000805893148), 'MYO_dc': np.float64(0.018501202656173766), 'MYO_hd': np.float64(162.33285900662833), 'RV_dc': np.float64(0.005670604550569448), 'RV_hd': np.float64(186.77323867686934)}
…
4(0.8967251073161588), 'RV_hd': np.float64(7.675840543848977)}
[1mEpoch [249][0m
GDLoss	CELoss	Total	LV_dc	LV_hd	MYO_dc	MYO_hd	RV_dc	RV_hd	
-0.891	0.0419	-0.849	0.9434	4.2979	0.8502	5.7365	0.8967	7.6758	
      RV_ED_DC  RV_ED_HD  RV_ES_DC  ...  MYO_ES_HD    MYO_DC    MYO_HD
axis                                ...                               
SA    0.906465  7.273748  0.888295  ...   4.865749  0.857464  5.952438
LA    0.915473  6.854922  0.895974  ...   5.209975  0.857186  5.739100

[2 rows x 18 columns]
[1mBaseline[0m
ModuleDict(
  (SA): Reconstructor(
    (encoder): Sequential(
      (0): Conv2d(4, 32, kernel_size=(4, 4), stride=(2, 2), padding=(1, 1))
      (1): BatchNorm2d(32, eps=1e-05, momentum=0.1, affine=True, track_running_stats=True)
      (2): LeakyReLU(negative_slope=0.2)
      (3): Dropout(p=0.5, inplace=False)
      (4): Conv2d(32, 32, kernel_size=(4, 4), stride=(2, 2), padding=(1, 1))
      (5): BatchNorm2d(32, eps=1e-05, momentum=0.1, affine=True, track_running_stats=True)
      (6): LeakyReLU(negative_slope=0.2)
      (7): Dropout(p=0.5, inplace=False)
      (8): Conv2d(32, 32, kernel_size=(4, 4), stride=(2, 2), padding=(1, 1))
      (9): BatchNorm2d(32, eps=1e-05, momentum=0.1, affine=True, track_running_stats=True)
      (10): LeakyReLU(negative_slope=0.2)
      (11): Dropout(p=0.5, inplace=False)
      (12): Conv2d(32, 32, kernel_size=(3, 3), stride=(1, 1), padding=(1, 1))
      (13): BatchNorm2d(32, eps=1e-05, momentum=0.1, affine=True, track_running_stats=True)
      (14): LeakyReLU(negative_slope=0.2)
      (15): Dropout(p=0.5, inplace=False)
      (16): Conv2d(32, 64, kernel_size=(4, 4), stride=(2, 2), padding=(1, 1))
      (17): BatchNorm2d(64, eps=1e-05, momentum=0.1, affine=True, track_running_stats=True)
      (18): LeakyReLU(negative_slope=0.2)
      (19): Dropout(p=0.5, inplace=False)
      (20): Conv2d(64, 64, kernel_size=(3, 3), stride=(1, 1), padding=(1, 1))
      (21): BatchNorm2d(64, eps=1e-05, momentum=0.1, affine=True, track_running_stats=True)
      (22): LeakyReLU(negative_slope=0.2)
      (23): Dropout(p=0.5, inplace=False)
      (24): Conv2d(64, 128, kernel_size=(4, 4), stride=(2, 2), padding=(1, 1))
      (25): BatchNorm2d(128, eps=1e-05, momentum=0.1, affine=True, track_running_stats=True)
      (26): LeakyReLU(negative_slope=0.2)
      (27): Dropout(p=0.5, inplace=False)
      (28): Conv2d(128, 64, kernel_size=(3, 3), stride=(1, 1), padding=(1, 1))
      (29): BatchNorm2d(64, eps=1e-05, momentum=0.1, affine=True, track_running_stats=True)
      (30): LeakyReLU(negative_slope=0.2)
      (31): Dropout(p=0.5, inplace=False)
      (32): Conv2d(64, 32, kernel_size=(3, 3), stride=(1, 1), padding=(1, 1))
      (33): BatchNorm2d(32, eps=1e-05, momentum=0.1, affine=True, track_running_stats=True)
      (34): LeakyReLU(negative_slope=0.2)
      (35): Dropout(p=0.5, inplace=False)
      (36): Conv2d(32, 100, kernel_size=(4, 4), stride=(2, 2), padding=(1, 1))
    )
    (decoder): Sequential(
      (0): ConvTranspose2d(100, 32, kernel_size=(4, 4), stride=(2, 2), padding=(1, 1))
      (1): BatchNorm2d(32, eps=1e-05, momentum=0.1, affine=True, track_running_stats=True)
      (2): LeakyReLU(negative_slope=0.2)
      (3): Dropout(p=0.5, inplace=False)
      (4): ConvTranspose2d(32, 64, kernel_size=(3, 3), stride=(1, 1), padding=(1, 1))
      (5): BatchNorm2d(64, eps=1e-05, momentum=0.1, affine=True, track_running_stats=True)
      (6): LeakyReLU(negative_slope=0.2)
      (7): Dropout(p=0.5, inplace=False)
      (8): ConvTranspose2d(64, 128, kernel_size=(3, 3), stride=(1, 1), padding=(1, 1))
      (9): BatchNorm2d(128, eps=1e-05, momentum=0.1, affine=True, track_running_stats=True)
      (10): LeakyReLU(negative_slope=0.2)
      (11): Dropout(p=0.5, inplace=False)
      (12): ConvTranspose2d(128, 64, kernel_size=(4, 4), stride=(2, 2), padding=(1, 1))
      (13): BatchNorm2d(64, eps=1e-05, momentum=0.1, affine=True, track_running_stats=True)
      (14): LeakyReLU(negative_slope=0.2)
      (15): Dropout(p=0.5, inplace=False)
      (16): ConvTranspose2d(64, 64, kernel_size=(3, 3), stride=(1, 1), padding=(1, 1))
      (17): BatchNorm2d(64, eps=1e-05, momentum=0.1, affine=True, track_running_stats=True)
      (18): LeakyReLU(negative_slope=0.2)
      (19): Dropout(p=0.5, inplace=False)
      (20): ConvTranspose2d(64, 32, kernel_size=(4, 4), stride=(2, 2), padding=(1, 1))
      (21): BatchNorm2d(32, eps=1e-05, momentum=0.1, affine=True, track_running_stats=True)
      (22): LeakyReLU(negative_slope=0.2)
      (23): Dropout(p=0.5, inplace=False)
      (24): ConvTranspose2d(32, 32, kernel_size=(3, 3), stride=(1, 1), padding=(1, 1))
      (25): BatchNorm2d(32, eps=1e-05, momentum=0.1, affine=True, track_running_stats=True)
      (26): LeakyReLU(negative_slope=0.2)
      (27): Dropout(p=0.5, inplace=False)
      (28): ConvTranspose2d(32, 32, kernel_size=(4, 4), stride=(2, 2), padding=(1, 1))
      (29): BatchNorm2d(32, eps=1e-05, momentum=0.1, affine=True, track_running_stats=True)
      (30): LeakyReLU(negative_slope=0.2)
      (31): Dropout(p=0.5, inplace=False)
      (32): ConvTranspose2d(32, 32, kernel_size=(4, 4), stride=(2, 2), padding=(1, 1))
      (33): BatchNorm2d(32, eps=1e-05, momentum=0.1, affine=True, track_running_stats=True)
      (34): LeakyReLU(negative_slope=0.2)
      (35): Dropout(p=0.5, inplace=False)
      (36): ConvTranspose2d(32, 4, kernel_size=(4, 4), stride=(2, 2), padding=(1, 1))
      (37): Softmax(dim=1)
    )
  )
  (LA): Reconstructor(
    (encoder): Sequential(
      (0): Conv2d(4, 32, kernel_size=(4, 4), stride=(2, 2), padding=(1, 1))
      (1): BatchNorm2d(32, eps=1e-05, momentum=0.1, affine=True, track_running_stats=True)
      (2): LeakyReLU(negative_slope=0.2)
      (3): Dropout(p=0.5, inplace=False)
      (4): Conv2d(32, 32, kernel_size=(4, 4), stride=(2, 2), padding=(1, 1))
      (5): BatchNorm2d(32, eps=1e-05, momentum=0.1, affine=True, track_running_stats=True)
      (6): LeakyReLU(negative_slope=0.2)
      (7): Dropout(p=0.5, inplace=False)
      (8): Conv2d(32, 32, kernel_size=(4, 4), stride=(2, 2), padding=(1, 1))
      (9): BatchNorm2d(32, eps=1e-05, momentum=0.1, affine=True, track_running_stats=True)
      (10): LeakyReLU(negative_slope=0.2)
      (11): Dropout(p=0.5, inplace=False)
      (12): Conv2d(32, 32, kernel_size=(3, 3), stride=(1, 1), padding=(1, 1))
      (13): BatchNorm2d(32, eps=1e-05, momentum=0.1, affine=True, track_running_stats=True)
      (14): LeakyReLU(negative_slope=0.2)
      (15): Dropout(p=0.5, inplace=False)
      (16): Conv2d(32, 64, kernel_size=(4, 4), stride=(2, 2), padding=(1, 1))
      (17): BatchNorm2d(64, eps=1e-05, momentum=0.1, affine=True, track_running_stats=True)
      (18): LeakyReLU(negative_slope=0.2)
      (19): Dropout(p=0.5, inplace=False)
      (20): Conv2d(64, 64, kernel_size=(3, 3), stride=(1, 1), padding=(1, 1))
      (21): BatchNorm2d(64, eps=1e-05, momentum=0.1, affine=True, track_running_stats=True)
      (22): LeakyReLU(negative_slope=0.2)
      (23): Dropout(p=0.5, inplace=False)
      (24): Conv2d(64, 128, kernel_size=(4, 4), stride=(2, 2), padding=(1, 1))
      (25): BatchNorm2d(128, eps=1e-05, momentum=0.1, affine=True, track_running_stats=True)
      (26): LeakyReLU(negative_slope=0.2)
      (27): Dropout(p=0.5, inplace=False)
      (28): Conv2d(128, 64, kernel_size=(3, 3), stride=(1, 1), padding=(1, 1))
      (29): BatchNorm2d(64, eps=1e-05, momentum=0.1, affine=True, track_running_stats=True)
      (30): LeakyReLU(negative_slope=0.2)
      (31): Dropout(p=0.5, inplace=False)
      (32): Conv2d(64, 32, kernel_size=(3, 3), stride=(1, 1), padding=(1, 1))
      (33): BatchNorm2d(32, eps=1e-05, momentum=0.1, affine=True, track_running_stats=True)
      (34): LeakyReLU(negative_slope=0.2)
      (35): Dropout(p=0.5, inplace=False)
      (36): Conv2d(32, 100, kernel_size=(4, 4), stride=(2, 2), padding=(1, 1))
    )
    (decoder): Sequential(
      (0): ConvTranspose2d(100, 32, kernel_size=(4, 4), stride=(2, 2), padding=(1, 1))
      (1): BatchNorm2d(32, eps=1e-05, momentum=0.1, affine=True, track_running_stats=True)
      (2): LeakyReLU(negative_slope=0.2)
      (3): Dropout(p=0.5, inplace=False)
      (4): ConvTranspose2d(32, 64, kernel_size=(3, 3), stride=(1, 1), padding=(1, 1))
      (5): BatchNorm2d(64, eps=1e-05, momentum=0.1, affine=True, track_running_stats=True)
      (6): LeakyReLU(negative_slope=0.2)
      (7): Dropout(p=0.5, inplace=False)
      (8): ConvTranspose2d(64, 128, kernel_size=(3, 3), stride=(1, 1), padding=(1, 1))
      (9): BatchNorm2d(128, eps=1e-05, momentum=0.1, affine=True, track_running_stats=True)
      (10): LeakyReLU(negative_slope=0.2)
      (11): Dropout(p=0.5, inplace=False)
      (12): ConvTranspose2d(128, 64, kernel_size=(4, 4), stride=(2, 2), padding=(1, 1))
      (13): BatchNorm2d(64, eps=1e-05, momentum=0.1, affine=True, track_running_stats=True)
      (14): LeakyReLU(negative_slope=0.2)
      (15): Dropout(p=0.5, inplace=False)
      (16): ConvTranspose2d(64, 64, kernel_size=(3, 3), stride=(1, 1), padding=(1, 1))
      (17): BatchNorm2d(64, eps=1e-05, momentum=0.1, affine=True, track_running_stats=True)
      (18): LeakyReLU(negative_slope=0.2)
      (19): Dropout(p=0.5, inplace=False)
      (20): ConvTranspose2d(64, 32, kernel_size=(4, 4), stride=(2, 2), padding=(1, 1))
      (21): BatchNorm2d(32, eps=1e-05, momentum=0.1, affine=True, track_running_stats=True)
      (22): LeakyReLU(negative_slope=0.2)
      (23): Dropout(p=0.5, inplace=False)
      (24): ConvTranspose2d(32, 32, kernel_size=(3, 3), stride=(1, 1), padding=(1, 1))
      (25): BatchNorm2d(32, eps=1e-05, momentum=0.1, affine=True, track_running_stats=True)
      (26): LeakyReLU(negative_slope=0.2)
      (27): Dropout(p=0.5, inplace=False)
      (28): ConvTranspose2d(32, 32, kernel_size=(4, 4), stride=(2, 2), padding=(1, 1))
      (29): BatchNorm2d(32, eps=1e-05, momentum=0.1, affine=True, track_running_stats=True)
      (30): LeakyReLU(negative_slope=0.2)
      (31): Dropout(p=0.5, inplace=False)
      (32): ConvTranspose2d(32, 32, kernel_size=(4, 4), stride=(2, 2), padding=(1, 1))
      (33): BatchNorm2d(32, eps=1e-05, momentum=0.1, affine=True, track_running_stats=True)
      (34): LeakyReLU(negative_slope=0.2)
      (35): Dropout(p=0.5, inplace=False)
      (36): ConvTranspose2d(32, 4, kernel_size=(4, 4), stride=(2, 2), padding=(1, 1))
      (37): Softmax(dim=1)
    )
  )
)
{'MSELoss': np.float64(0.028670878112316132), 'GDLoss': np.float64(-0.014780729692510581), 'Total': np.float64(0.013890148345381022), 'LV_dc': np.float64(0.0), 'LV_hd': np.float64(inf), 'MYO_dc': np.float64(0.0), 'MYO_hd': np.float64(207.93750872222975), 'RV_dc': np.float64(0.0), 'RV_hd': np.float64(inf)}
…
